snapshot.pth (torch_old, 46555 bytes, 20 tensors)

_conv1._conv.weight f4 [16, 3, 3, 3]
0	0xbe3290e7	-0.17438088
1	0x3d9afb59	0.07567472
2	0xbdad77fc	-0.08470151
3	0x3d2ec3a4	0.042667046
4	0xbe3de0f6	-0.18542847
5	0xbd2d17c0	-0.042258978
6	0xbdd0a5cc	-0.10187873
7	0xbdf26bcf	-0.11836969
8	0x3cee3c00	0.029081345
9	0xbda52a5b	-0.08064719
10	0x3e309353	0.172437
11	0xbcaeeef2	-0.021354172
12	0xbdbe157b	-0.09281441
13	0xbc9a24f9	-0.018816458
14	0xbde77cda	-0.113031104
15	0xbbf60f11	-0.0075091203
16	0x3e0bd627	0.13655911
17	0x3d415de0	0.047208667
18	0xbe191611	-0.14949824
19	0x3e3556a2	0.17708829
20	0x3e37e838	0.17959678
21	0xbe1dc41f	-0.15406846
22	0x3e11b0b6	0.14227566
23	0xbdd76ebf	-0.1051917
24	0x3db64bd7	0.08901184
25	0xbe2492f7	-0.16071688
26	0xbd2621dc	-0.040559635
27	0xbd457fe4	-0.04821767
28	0x3cb9b330	0.022668451
29	0x3e2d6779	0.16934003
30	0x3de1e645	0.110302486
31	0x3e54c600	0.20778656
32	0x3da6b30b	0.081396185
33	0x3d85c2bf	0.065312855
34	0xbdde1c6a	-0.10845263
35	0xbe06e303	-0.13172536
36	0x3dd3f5a6	0.10349588
37	0x3e36e488	0.17860615
38	0x3b9fd440	0.004877597
39	0xbd073cdc	-0.033017024
40	0x3e40c082	0.18823436
41	0x3d3f221c	0.04666339
42	0xbda6482f	-0.08119237
43	0xbc43e00d	-0.011955273
44	0xbd9c924a	-0.0764509
45	0x3e3d2ebb	0.18474858
46	0xbde4c4ba	-0.11170335
47	0xbe24989b	-0.1607384
48	0x3df7090c	0.120622724
49	0xbd85331f	-0.06503891
50	0xbe275167	-0.16339646
51	0xbd9c0b49	-0.0761934
52	0x3c623b42	0.0138080735
53	0x3e4a6ae8	0.19767344
54	0x3d808b6c	0.062765926
55	0xbd76ff92	-0.060302325
56	0x3e3c7487	0.18403827
57	0xbd9dec0c	-0.07711038
58	0x3de919f7	0.113819055
59	0xbd39762e	-0.04527872
60	0xbdd9abd5	-0.106284775
61	0x3de28b75	0.110617556
62	0xb7b82b66	-2.1954718e-05
63	0xbe366db3	-0.17815284
64	0x3e052f61	0.13006355
65	0xbe13a40b	-0.14418046
66	0x3cc199af	0.023632852
67	0x3da36e97	0.07980078
68	0xbd832769	-0.06404001
69	0xbdf827a9	-0.121169396
70	0xbe3f6126	-0.18689403
71	0xbe427fb7	-0.18994032
72	0x3dac1043	0.08401539
73	0x3cee9141	0.029121997
74	0xbc65320e	-0.013988985
75	0x3c1522f3	0.009102571
76	0xbdbfecff	-0.09371375
77	0x3d45274f	0.04813319
78	0x3e721337	0.23640142
79	0x3d647207	0.055772807
80	0x3e661a51	0.22470976
81	0x3dea6872	0.114457026
82	0x3df610df	0.12014937
83	0x3e184143	0.14868645
84	0x3ccdffc6	0.025146376
85	0xbdd366bd	-0.1032233
86	0xbdb527bd	-0.0884547
87	0x3de9ee2b	0.1142238
88	0x3cd5027d	0.026002163
89	0xbdfce8f4	-0.1234912
90	0x3dabb525	0.0838416
91	0x3ce716a6	0.028209042
92	0xbb75f78b	-0.003753158
93	0x3db847e1	0.08998085
94	0xbe174020	-0.14770555
95	0x3e271046	0.16314802
96	0xbddb4441	-0.10706378
97	0x3db36ffa	0.08761592
98	0xbddf2df9	-0.108974405
99	0xbe1cab28	-0.15299666
100	0x3d439bb7	0.047755923
101	0xbde5f09f	-0.112275355
102	0xbe0bed41	-0.13664724
103	0xbe1a2a29	-0.15055145
104	0xbc229dc5	-0.0099253105
105	0xbc048287	-0.008087761
106	0x3d7eff30	0.062255085
107	0x3d7c23bb	0.061557513
108	0xbd61f3d5	-0.055164177
109	0x3b6998f0	0.0035644136
110	0xbd8c581b	-0.06852742
111	0xbe001a64	-0.12510067
112	0x3d28c802	0.041206367
113	0xbe42c919	-0.19022025
114	0x3d08d0f3	0.033402395
115	0xbe31d55f	-0.17366551
116	0x3e38f928	0.18063796
117	0xbdddac64	-0.108238965
118	0xbe03c7b9	-0.12869157
119	0x3dff9cd0	0.124810815
120	0xbd5f20cb	-0.054474633
121	0xbde5df56	-0.112242386
122	0x3d01ffbd	0.03173803
123	0xbe15ca86	-0.14628038
124	0x3e3ad5f8	0.18245685
125	0x3d5e2684	0.05423595
126	0x3d191528	0.03737369
127	0x3da2cc39	0.07949109
128	0xbc02f8a8	-0.007993855
129	0xbc3ddbac	-0.011588018
130	0xbdd4236b	-0.10358318
131	0x3d038290	0.032106936
132	0xbe04528b	-0.12922113
133	0xbe298a08	-0.16556561
134	0x3d2388f0	0.039925516
135	0x3e29e8d6	0.16592726
136	0xbe3bc387	-0.18336307
137	0x3d26b002	0.040695198
138	0xbdaa1a42	-0.083057895
139	0x3e2a9cfe	0.1666145
140	0x3e208236	0.15674672
141	0xbe3b7c40	-0.18309116
142	0xbe4338c0	-0.19064617
143	0x3e0dfbc3	0.1386557
144	0x3e01d3e8	0.12678492
145	0xbe3a8221	-0.18213703
146	0x3df641c7	0.12024265
147	0xbe31e092	-0.17370823
148	0xbd6accbf	-0.057324167
149	0x3e1b3b99	0.15159453
150	0xbe0ecd85	-0.13945587
151	0xbe5a6251	-0.21326567
152	0xbd5678f3	-0.05236144
153	0x3cdfb71e	0.027308997
154	0x3dcadc93	0.099053524
155	0xbd1e2037	-0.03860494
156	0x3dbcf8f7	0.09227174
157	0xbe499bd2	-0.19688347
158	0x3ccf78bc	0.025326125
159	0xbc670ad6	-0.014101705
160	0xbd6e77ac	-0.058219597
161	0x3d4e0987	0.050302055
162	0xbdbb0c44	-0.09133199
163	0xbd960612	-0.073253766
164	0xbe380991	-0.179724
165	0xbd90985a	-0.07060309
166	0x3b957a7a	0.0045617195
167	0x3c09ed17	0.008418343
168	0xbde86506	-0.11347394
169	0x3da72265	0.08160857
170	0xbe2b75f2	-0.16744211
171	0xbe26cd13	-0.16289167
172	0x3e3a4958	0.18192041
173	0x3c745fa3	0.01491538
174	0xbe047f78	-0.1293925
175	0x3da5538e	0.080725774
176	0xbe0882ba	-0.13331118
177	0xbe2bd197	-0.16779171
178	0xbdc8fd10	-0.09813893
179	0xbe37478a	-0.17898384
180	0x3c0910f1	0.008365856
181	0x3e17be7a	0.14818755
182	0xbe0f9105	-0.14020164
183	0xbd8a7cfa	-0.06762119
184	0x3cabca77	0.020970566
185	0x3cd1f747	0.025630606
186	0x3d842f70	0.064543605
187	0xbd578744	-0.052619234
188	0xbe3269f3	-0.17423229
189	0xbd78f470	-0.06077999
190	0xbe3def5a	-0.18548337
191	0xbe2e0249	-0.16993059
192	0xbd6e2d0d	-0.058148433
193	0xbdae3523	-0.08506229
194	0x3e1db5fe	0.15401456
195	0x3e1b2b1d	0.15153165
196	0x3e05e632	0.13076094
197	0xbe1a119f	-0.15045784
198	0x3d1fbe25	0.038999695
199	0xbd430d45	-0.047620077
200	0xbd3567c6	-0.04428842
201	0xbcc35acb	-0.023847004
202	0xbd84bdf8	-0.06481546
203	0xbd1f8bf4	-0.03895183
204	0x3cb116d9	0.02161734
205	0x3d6be5b7	0.05759212
206	0xbe0a4314	-0.13502151
207	0xbd5ccf0d	-0.053908397
208	0x3dd956b2	0.10612239
209	0xbd141a9f	-0.0361582
210	0xbdf86c90	-0.12130082
211	0xbd723da8	-0.05914083
212	0xbd233835	-0.039848525
213	0x3d1b2f48	0.037886888
214	0xbd9ff568	-0.078104794
215	0x3e1e1a32	0.1543968
216	0x3cc2cbab	0.023778757
217	0xbd5a76c6	-0.053335927
218	0x3c2e42f3	0.010636079
219	0xbe3a18f4	-0.18173581
220	0xbd7efcb3	-0.06225271
221	0x3c4655d5	0.012105425
222	0x3d818cab	0.063256584
223	0x3ca6a356	0.020341557
224	0xbc5e490e	-0.013567222
225	0xbd6f92f0	-0.05848974
226	0x3e369452	0.17830017
227	0x3e464c64	0.19365078
228	0x3b6171db	0.0034400139
229	0x3d2eadce	0.04264622
230	0x3d1d0bcb	0.038341325
231	0x3d5b109c	0.053482637
232	0xbc4a60ba	-0.012352163
233	0x3d628a7f	0.05530786
234	0x3d772061	0.060333613
235	0xbd28a6d2	-0.041174717
236	0xbdde27ba	-0.10847421
237	0x3d2c9301	0.04213238
238	0xbd9cebd5	-0.07662169
239	0xbd940c28	-0.07228881
240	0x3c550eb8	0.0130039975
241	0xbd080efc	-0.033217415
242	0xbe2c6ddc	-0.16838783
243	0x3d63373d	0.0554726
244	0x3ca2a4b5	0.019853929
245	0xbd2b4630	-0.041814983
246	0xbdbc7780	-0.0920248
247	0x3e37fd80	0.17967796
248	0x3d08ee40	0.033430338
249	0xbd9a73fb	-0.07541653
250	0xbe1007b2	-0.14065436
251	0x3dc8a20b	0.09796532
252	0x3def424e	0.116825685
253	0xbdf26f6b	-0.118376575
254	0xbe417297	-0.18891369
255	0xbd5268cc	-0.051369473

_conv1._conv.bias f4 [16]
0	0xbd247a05	-0.04015543
1	0x3e43f2d8	0.19135606
2	0x3c0cc21d	0.008591202
3	0xbdfed1c7	-0.124423556
4	0xbcc0a10f	-0.023514299
5	0xbd40af3f	-0.047042128
6	0x3e05ff7f	0.13085745
7	0x3dd73074	0.105072886
8	0x3dc81809	0.09770209
9	0xba3cf6d6	-0.0007208412
10	0x3d88c424	0.06678036
11	0xbe22effc	-0.1591186
12	0xbe36908f	-0.17828582
13	0x3e0c8e8a	0.1372625
14	0x3e1c387f	0.15255927
15	0x3d20b33d	0.039233435

_conv1._bn.weight f4 [16]
0	0x3d49aa94	0.04923494
1	0x3ef09604	0.46989453
2	0x3ee8a964	0.45441735
3	0x3f02ee5c	0.5114496
4	0x3e1fa2f8	0.15589511
5	0x3f20f211	0.62869364
6	0x3ed2216d	0.41041127
7	0x3d8c2c14	0.06844345
8	0x3f314a88	0.6925435
9	0x3e89ea1e	0.2693643
10	0x3f1e2dda	0.61788714
11	0x3c1631c7	0.009167141
12	0x3f181eac	0.594218
13	0x3f2e0d54	0.6798909
14	0x3f77f635	0.9686006
15	0x3f52558e	0.82161796

_conv1._bn.bias f4 [16]
0	0x3c7744eb	0.015092115
1	0x3d06d18d	0.032914687
2	0xbcb4ff84	-0.022094496
3	0x3cedd962	0.02903432
4	0xbc4f15bd	-0.01263946
5	0x3b87e6a9	0.00414737
6	0x3c4e52af	0.0125929555
7	0x3c8fe64f	0.017565874
8	0x3d28316c	0.041062757
9	0xbd029ba9	-0.03188673
10	0x3cdc22cc	0.026872061
11	0xbc935a2a	-0.01798733
12	0xbca38411	-0.019960435
13	0x3dbcd007	0.092193656
14	0xbc756a6e	-0.014978988
15	0x3c239047	0.009983129

_conv1._bn.running_mean f4 [16]
0	0xbe84d385	-0.25942627
1	0x3ee34dcb	0.4439529
2	0x3d827a6e	0.06371008
3	0xbe3a90d7	-0.18219315
4	0xbeaa2884	-0.33234036
5	0xbe61428d	-0.21998043
6	0xbedbb40c	-0.42910802
7	0xbe124d9f	-0.14287423
8	0x3d68a3b1	0.056796733
9	0xbea0f20d	-0.3143467
10	0x3e413314	0.18867141
11	0xbd14bcf0	-0.036312997
12	0xbf46b2a8	-0.7761636
13	0xbe024ef5	-0.12725432
14	0xbe9568c1	-0.29181483
15	0x38ca6811	9.6514945e-05

_conv1._bn.running_var f4 [16]
0	0x3c66374c	0.01405127
1	0x3c930f3a	0.017951597
2	0x3adbbcf5	0.0016764688
3	0x3b126ce1	0.002234273
4	0x3cdea19c	0.02717667
5	0x3c297635	0.010343124
6	0x3db130ee	0.08651911
7	0x3c8e7a43	0.017392283
8	0x3a87ab7c	0.0010350789
9	0x3cf34b5c	0.02969902
10	0x3bda612a	0.006664415
11	0x3ba6c331	0.0050891866
12	0x3dcb2a0f	0.099201314
13	0x3ca38709	0.01996185
14	0x3d637c25	0.055538315
15	0x3acfd679	0.0015856765

_conv2._conv.weight f4 [32, 16, 3, 3]
0	0x3d78a123	0.060700547
1	0x3d659387	0.056048896
2	0xbd659840	-0.0560534
3	0x3d875cb2	0.06609477
4	0x3cf1ba8e	0.029507902
5	0x3d97551d	0.07389281
6	0xbd21d340	-0.039508104
7	0x3ba7280a	0.0051012086
8	0x3d9a19cd	0.07524452
9	0xbd61736b	-0.05504171
10	0x3b7f0cb2	0.003891748
11	0xbd878564	-0.06617239
12	0x3c99d56c	0.018778525
13	0x3d1758d8	0.036949962
14	0xbc409187	-0.011753446
15	0x3c6cae13	0.014445799
16	0xbda3eae1	-0.08003784
17	0xbdc13f13	-0.094358586
18	0xbc5045d8	-0.012711965
19	0x3d856ed8	0.065152824
20	0xbd9fc32b	-0.07800897
21	0x3d9291b2	0.071566954
22	0xbd578352	-0.05261547
23	0xbd77d0b2	-0.06050176
24	0x3b959d57	0.0045658755
25	0xbda64bc1	-0.08119918
26	0xbbdff7ef	-0.006834976
27	0x3d70f719	0.0588294
28	0x3d99af8b	0.07504185
29	0x3c5ca54c	0.013467144
30	0xbca945c5	-0.020663152
31	0xbd3d1842	-0.046165712
32	0x3c19c4a5	0.009385263
33	0x3caf8887	0.021427406
34	0x3d97f0be	0.07418965
35	0xbd1bb782	-0.038016804
36	0x3d8656b1	0.06559504
37	0xbbc54b75	-0.006020958
38	0x3d8d0b43	0.068869136
39	0x3cd4d103	0.02597857
40	0xbd7f8eff	-0.06239223
41	0x3d924fa3	0.07144096
42	0x3d8337c2	0.06407119
43	0xbd94342f	-0.07236516
44	0xbd92262b	-0.07136186
45	0xbab42b27	-0.001374577
46	0xbd9fcecd	-0.07803116
47	0xbda04efe	-0.078275666
48	0xbd9b468e	-0.075818166
49	0xbc9ce856	-0.019153755
50	0x3d827b02	0.06371118
51	0x3c87e05f	0.01658648
52	0x3d89761a	0.06711979
53	0xbd935eba	-0.07195802
54	0x3d3f52d7	0.04670986
55	0xbd54c3f1	-0.051944677
56	0x3d82abc1	0.06380416
57	0x3cf73ffb	0.030181875
58	0x3d25ad75	0.040448625
59	0x3da52d8f	0.0806533
60	0xbcc7a9aa	-0.024372894
61	0xbd8ed61b	-0.06974431
62	0x3d9996d5	0.07499472
63	0x3cccf6de	0.02502006
64	0x3ca125ea	0.0196714
65	0xbc0c5d6d	-0.008567196
66	0xbce8645e	-0.028368171
67	0xbd2b9a77	-0.041895356
68	0x3d9b127a	0.075718835
69	0x3d4d45cf	0.050115403
70	0xbd513c92	-0.051083155
71	0x3ca5d025	0.020240853
72	0x3c5bea58	0.013422571
73	0x3d2661b8	0.040620536
74	0x3cf9da9c	0.030499749
75	0x3d0e498d	0.034738112
76	0x3c2358b4	0.009969879
77	0x3c1b36a8	0.00947348
78	0xbd8e2997	-0.069415264
79	0xbcebb5b1	-0.02877316
80	0xbaeaeb99	-0.0017922997
81	0x3c9e3500	0.019312382
82	0x3c927095	0.017875949
83	0xbd06b705	-0.032889385
84	0x3d884969	0.06654627
85	0xbd5e80d0	-0.054322064
86	0x3c22f9c3	0.009947243
87	0x3cd77dfe	0.026305195
88	0xbd41fc83	-0.047359955
89	0x3da85924	0.08220127
90	0x3d6526ce	0.05594521
91	0x3d256cbd	0.040386904
92	0xbd936203	-0.071964286
93	0xbd6a1934	-0.05715294
94	0x3d0c8e9b	0.034315687
95	0x3cfdfa39	0.031003105
96	0x3d89103a	0.06692548
97	0x3d082ff1	0.033248845
98	0x3cd8bb80	0.026456594
99	0xbc8bf56b	-0.017084798
100	0xbd89e00d	-0.067321874
101	0xbd83007b	-0.06396576
102	0xbd3bf60a	-0.045888938
103	0x3b956717	0.0045594084
104	0x3d85e08d	0.0653697
105	0x3c8eb85a	0.01742189
106	0xbd700947	-0.058602598
107	0x3d2b1ef8	0.04177758
108	0x3c036703	0.008020165
109	0x3d5d1164	0.053971663
110	0xbd19b530	-0.03752631
111	0xbcbe63c6	-0.023240935
112	0xbd3e7b07	-0.046504047
113	0x3d6c6f4d	0.057723332
114	0xbd321763	-0.043479335
115	0x3c8f93a2	0.017526451
116	0x3c8a59c6	0.01688851
117	0xbd6da745	-0.05802085
118	0x3996e463	0.0002878039
119	0xbbec8cce	-0.0072189337
120	0xbd0b78b1	-0.034050647
121	0xbd84e4dc	-0.06488964
122	0xbd3175c4	-0.0433252
123	0x3d9c5773	0.07633867
124	0xbd531393	-0.05153234
125	0xbb24ee32	-0.002516639
126	0xbd5866e9	-0.052832518
127	0xbd83d349	-0.06436784
128	0x3d112dd1	0.035444085
129	0x3d80ab90	0.06282723
130	0x3d3d9095	0.046280462
131	0x3da2891e	0.07936309
132	0xbda9fc6c	-0.08300099
133	0xbd5b5c4c	-0.053554818
134	0xbd63304d	-0.055465985
135	0xbd5cce54	-0.053907707
136	0xbc9eca8f	-0.019383697
137	0xbd0e02bd	-0.03467058
138	0xbdb148d1	-0.08656467
139	0xbd0df77f	-0.03465986
140	0xbb4d2695	-0.0031303514
141	0xbced64dd	-0.02897876
142	0x3d820113	0.06347861
143	0x3da1629f	0.078801386
144	0x3c4a1b15	0.012335558
145	0x3cec10db	0.028816631
146	0x3c6ef21a	0.014584089
147	0x3c8f1cf4	0.01746986
148	0x3d248d44	0.040173784
149	0xbd30245a	-0.043003418
150	0xbd761fcd	-0.06008892
151	0x3c8fae91	0.017539294
152	0x3cfb7a31	0.030697914
153	0xbd919307	-0.07108121
154	0xbac07d0e	-0.0014685707
155	0x3d3ea46a	0.046543516
156	0x3bb403f7	0.0054936367
157	0xbd8e4d31	-0.06948317
158	0xbd807dbd	-0.06273983
159	0x3d50a91b	0.05094252
160	0xbd09e7b8	-0.03366825
161	0xbd09e426	-0.033664845
162	0x3cec832e	0.028871145
163	0xbc3f67f4	-0.011682499
164	0x3dc262af	0.09491479
165	0xbcbfd5b8	-0.023417339
166	0xbd868b06	-0.06569485
167	0xbc849f7a	-0.016189326
168	0xbd53a002	-0.051666267
169	0xbd6646fd	-0.056220043
170	0x3ca1678a	0.019702692
171	0x3d07cfd1	0.033157174
172	0x3d5a5315	0.05330189
173	0xbd408481	-0.047001366
174	0x3d507a1e	0.05089771
175	0x3d581db2	0.052762695
176	0x3d88e85b	0.06684943
177	0xbd89509e	-0.0670483
178	0x3d268a9f	0.040659543
179	0xbc238f15	-0.009982844
180	0xbb8b670b	-0.004254227
181	0x3cadeea9	0.021231966
182	0xbda81550	-0.0820719
183	0xbd4ef36f	-0.050525125
184	0x3c510397	0.012757204
185	0x3d96edac	0.07369551
186	0xbd85226b	-0.06500705
187	0xbd85345b	-0.06504127
188	0x3d5ecb09	0.05439285
189	0xbd6a50c6	-0.057205938
190	0x3cc8e38e	0.024522569
191	0x3d854469	0.06507189
192	0xbd6a9cd8	-0.057278484
193	0xbda570a0	-0.08078122
194	0xbcf6f095	-0.030144015
195	0xbbb23551	-0.0054384847
196	0x3ca1f55e	0.01977032
197	0x3d202b3c	0.03910373
198	0xbb819709	-0.0039547724
199	0xbc9fa2b6	-0.019486766
200	0x3c6f6638	0.014611773
201	0xbd280d01	-0.041028026
202	0x3d0ddaa9	0.03463236
203	0x3cdef587	0.027216686
204	0xbc2bb29b	-0.010479595
205	0x3d610b4e	0.05494242
206	0xbd877c74	-0.066155344
207	0x3d564942	0.052315958
208	0xbd25dda2	-0.04049457
209	0x3d4c7247	0.04991367
210	0xbda4c8b0	-0.080460906
211	0x3ce16b6a	0.02751704
212	0xbcc29ae7	-0.023755504
213	0xbbaecf41	-0.005334765
214	0x3ccd2a4a	0.025044579
215	0xbc5e4988	-0.013567336
216	0xbd46cdbf	-0.04853606
217	0x3d8af196	0.0678436
218	0xbd8e79c6	-0.0695682
219	0x3ca1323b	0.019677272
220	0xbd15c3e1	-0.036563758
221	0xbc23b376	-0.009991517
222	0xbdb960aa	-0.0905164
223	0x3d573aab	0.052546185
224	0x3d90b5c0	0.07065916
225	0xbc94ef27	-0.018180443
226	0x3c9e3a2a	0.019314844
227	0xbd736264	-0.059420004
228	0x3da5e945	0.08101133
229	0x3d5ecf45	0.054396886
230	0xbd9c8652	-0.07642807
231	0x3d5e1813	0.054222178
232	0x3d8eebe9	0.0697859
233	0x3d941ed3	0.07232442
234	0x3d9fd277	0.07803815
235	0x3a1545cd	0.00056943
236	0x3d52e4cb	0.051487725
237	0xbc8e08d2	-0.01733819
238	0x3d4c05a1	0.049810056
239	0xbcdf5cb6	-0.027265888
240	0x3d7cc75b	0.061713558
241	0xbd78db7c	-0.06075619
242	0x3dbc01f2	0.091800585
243	0x3cfdf4d4	0.031000532
244	0x3d8450ac	0.064606994
245	0x3cd155ad	0.025553549
246	0xbd88ea0e	-0.066852674
247	0xbcb1a9a7	-0.021687342
248	0x3d08108b	0.0332189
249	0x3d8e4d06	0.06948285
250	0x3d8d0ff3	0.06887808
251	0x3d965d3c	0.07342002
252	0x3d6cd516	0.057820402
253	0xbd4115d3	-0.047139954
254	0x3cf938d5	0.030422607
255	0x3d101790	0.03517872

_conv2._conv.bias f4 [32]
0	0x3d4b401e	0.049621694
1	0x3d897845	0.06712393
2	0xbd4d10a5	-0.0500647
3	0xbd896625	-0.06708936
4	0x3c713c14	0.014723796
5	0xbc3d04db	-0.011536802
6	0xbd336ef3	-0.04380698
7	0xbd232e27	-0.039838936
8	0xbd9028fb	-0.070390664
9	0x3bd449ed	0.006478539
10	0x3cf91d5f	0.030409513
11	0x3c148d50	0.009066895
12	0xbd6253c2	-0.05525566
13	0x3d9f4e65	0.077786244
14	0xbd3f7528	-0.04674259
15	0x3bdc719e	0.0067274114
16	0x3da789b0	0.08180559
17	0xbd77e715	-0.06052311
18	0x3d979586	0.07401566
19	0x3cd49c32	0.025953386
20	0x3caceb35	0.02110825
21	0x3d7e1f09	0.062041316
22	0x3d91e7e0	0.07124305
23	0x3d979d89	0.07403094
24	0x3d63c74a	0.05560998
25	0xbd9d8094	-0.0769054
26	0xbbe0ef13	-0.0068644374
27	0x3cef8a7b	0.029240837
28	0x3cea56e4	0.028605886
29	0x3d8961ea	0.06708129
30	0xbd588b2a	-0.052867092
31	0xbd952767	-0.07282906

_conv2._bn.weight f4 [32]
0	0x3e8c2180	0.27369308
1	0x3f270d80	0.65254974
2	0x3f696bc8	0.91180086
3	0x3f7bd888	0.98377275
4	0x3f088452	0.53326905
5	0x3f7179fe	0.9432677
6	0x3da412e3	0.08011415
7	0x3eb0b78e	0.3451504
8	0x3f1bb902	0.60829175
9	0x3f3a5fea	0.72802603
10	0x3f27d339	0.65556675
11	0x3ee7271b	0.45147023
12	0x3f165bee	0.58734024
13	0x3e99bcc7	0.30026838
14	0x3f66f695	0.90220004
15	0x3f70cbc1	0.94060904
16	0x3de47fed	0.111572124
17	0x3f3c074d	0.7344864
18	0x3f71491d	0.94252187
19	0x3f21af81	0.6315842
20	0x3e6ed4ae	0.23323318
21	0x3f2d5fa6	0.6772407
22	0x3f1b1af3	0.60587996
23	0x3e19248b	0.14955346
24	0x3f366729	0.7125116
25	0x3e96c8bd	0.29450026
26	0x3f3fcca4	0.7492163
27	0x3e29ce1b	0.16582529
28	0x3ed1a60a	0.4094699
29	0x3ee8f8da	0.4550236
30	0x3f5383d2	0.82623017
31	0x3ebc028c	0.36720693

_conv2._bn.bias f4 [32]
0	0x3ca2552d	0.019816006
1	0xbb25dc07	-0.0025308148
2	0xbc818ef6	-0.01581524
3	0xbb603167	-0.0034209134
4	0x3b822c31	0.003972553
5	0xbc18a74f	-0.009317233
6	0xbb81b155	-0.003957907
7	0x3a52331c	0.000801848
8	0x3aed2b23	0.0018094521
9	0xbc5065b1	-0.012719558
10	0xbca3aebf	-0.019980786
11	0x3bc9e9a7	0.0061618867
12	0xbc225582	-0.009908082
13	0xbbc8cbbd	-0.006127803
14	0x3a4a026e	0.00077060505
15	0x3b123466	0.0022309064
16	0xbbec29b2	-0.007207119
17	0x3b2ab066	0.0026045083
18	0xbb240086	-0.0025024726
19	0xbc384283	-0.011246326
20	0x3b44b78f	0.0030016636
21	0xbb97a2ed	-0.0046275766
22	0xbb3f4825	-0.0029187289
23	0x3a188b8a	0.0005819133
24	0x3c951ab5	0.018201211
25	0x3b947ef1	0.004531734
26	0x397af2dc	0.0002393233
27	0xbbd7163f	-0.0065639312
28	0x3b515150	0.0031939335
29	0xbbcd2726	-0.0062607704
30	0x3c3c60e4	0.01149771
31	0xbcc1f128	-0.023674563

_conv2._bn.running_mean f4 [32]
0	0xbd504f18	-0.05085668
1	0x3e198887	0.14993487
2	0xbe202deb	-0.15642516
3	0x3e59084f	0.21194576
4	0xbdbdd191	-0.09268487
5	0xbe2313a2	-0.15925458
6	0x3df557be	0.11979626
7	0x3af710d6	0.0018849622
8	0x3d5f2265	0.05447616
9	0xbe34be9b	-0.17650835
10	0x3e7d91c5	0.24762638
11	0xbe898316	-0.26857823
12	0xbe46f824	-0.19430596
13	0x3d7d89d8	0.061899036
14	0x3e491ddc	0.19640297
15	0x3d9ed834	0.07756081
16	0xbd77b552	-0.060475655
17	0xbd682bbd	-0.056682337
18	0xbdf1375f	-0.11778139
19	0x3ea0d980	0.3141594
20	0xbd6376c8	-0.0555332
21	0x3e815d0d	0.25266305
22	0xbe520f3a	-0.20513621
23	0xbdbd7597	-0.09250944
24	0xbddb0931	-0.106951125
25	0xbec04190	-0.3755002
26	0xbe3459ed	-0.17612429
27	0xbd044f68	-0.03230229
28	0xbe213629	-0.15743317
29	0xbe55c360	-0.20875311
30	0xbe20c163	-0.15698771
31	0x3e6ba76e	0.23013088

_conv2._bn.running_var f4 [32]
0	0x3c86b4a8	0.016443565
1	0x3c4e10e9	0.012577274
2	0x3d920d11	0.071313985
3	0x3e4d29ad	0.2003543
4	0x3cc99747	0.024608267
5	0x3ceeef4e	0.029166844
6	0x3d17acfc	0.037030205
7	0x3c02d490	0.007985249
8	0x3c58a629	0.013223209
9	0x3d7e7058	0.062118858
10	0x3cf57cc3	0.029966718
11	0x3d752bba	0.059856154
12	0x3df38d89	0.1189223
13	0x3bc49f10	0.006000407
14	0x3e2f5eca	0.17126003
15	0x3d2e1725	0.04250254
16	0x3d4d2284	0.050081745
17	0x3d450070	0.04809612
18	0x3ca97d2f	0.020689575
19	0x3d4d92a0	0.05018866
20	0x3c83e9c6	0.016102683
21	0x3d989276	0.0744981
22	0x3d87a1de	0.066226706
23	0x3cb9d11f	0.022682725
24	0x3d5f516f	0.05452102
25	0x3e0d2857	0.1378492
26	0x3dc045b6	0.09388296
27	0x3c2504d2	0.01007195
28	0x3d18dfed	0.037322927
29	0x3df5b893	0.11998095
30	0x3d1c4d58	0.0381597
31	0x3ce7963d	0.028269881

_conv3._conv.weight f4 [16, 32, 3, 3]
0	0x3b1ca13d	0.0023899816
1	0x3d3eb774	0.046561673
2	0x3ac00793	0.0014650695
3	0x3b8e472e	0.0043419814
4	0xbd5a307e	-0.053268902
5	0xbd5bda3b	-0.053674918
6	0xbd330d9a	-0.043714143
7	0xbbfaa24a	-0.007648741
8	0x3ce53c5a	0.02798288
9	0x3d1ebc1e	0.03875362
10	0x3ceb24c3	0.028704053
11	0x3d126347	0.03573921
12	0xbc9b29d2	-0.01894084
13	0xbcf10cdf	-0.029425083
14	0x3ca61933	0.020275688
15	0xbc32aae6	-0.010905003
16	0x3d06fa08	0.032953292
17	0xbd49cd51	-0.04926807
18	0xbd67150c	-0.056416556
19	0xbcca2691	-0.024676593
20	0xbd282b19	-0.041056726
21	0xbcc1f6e0	-0.02367729
22	0xbd69622b	-0.056978386
23	0x3d2257e8	0.039634615
24	0x3c2c8df8	0.010531895
25	0x3d202920	0.03910172
26	0xbcf2855e	-0.02960461
27	0xbd0f18f3	-0.034935903
28	0x3d1ce4cf	0.038304146
29	0xbc1ab593	-0.009442705
30	0x3d1cb6ad	0.03826015
31	0x3c08dc79	0.008353346
32	0x3c958f1a	0.018256713
33	0xbcdbaeee	-0.026816811
34	0x3d080eae	0.033217125
35	0x3c1dcd52	0.009631472
36	0x3c927eac	0.017882667
37	0xbc285c6c	-0.010275941
38	0xbcf4de3c	-0.029891126
39	0x3d1d0233	0.038332175
40	0x3ccf7127	0.02532251
41	0xbd4d8811	-0.05017859
42	0x3d703b7b	0.058650475
43	0xbcf46140	-0.029831529
44	0xbcf3fbc8	-0.029783145
45	0x3d21a0e0	0.039460063
46	0xbd5b50a1	-0.05354369
47	0x3d21f90f	0.03954416
48	0xbd494eab	-0.04914729
49	0xbccff8ef	-0.025387255
50	0x3d22416b	0.03961317
51	0x3c1b209e	0.009468226
52	0xbd6b17b3	-0.05739565
53	0x3c946ac2	0.018117312
54	0xbc2f0f30	-0.010684773
55	0x3ca8210f	0.020523576
56	0x3c84ab17	0.016194863
57	0xbb78b832	-0.0037951586
58	0xbc0fe8f0	-0.008783564
59	0xbcd16b5b	-0.025563886
60	0xbc46fa40	-0.012144625
61	0xbcfd1c2b	-0.03089722
62	0x3d1456e7	0.03621569
63	0xbd439561	-0.04774988
64	0x3d358910	0.044320166
65	0x3d2986ff	0.041388508
66	0xbd0a3dcd	-0.033750344
67	0xbcdc1801	-0.026866915
68	0xbc65f9d2	-0.014036613
69	0xbbf318f1	-0.0074187447
70	0x3cdf3f68	0.027251914
71	0x3c36ec45	0.0111647295
72	0xbd0b7f0f	-0.03405672
73	0x3b556c84	0.00325659
74	0xbca5f4f6	-0.020258408
75	0x3d01a0fc	0.031647667
76	0x3d57e4fa	0.052708603
77	0x3ba2ba11	0.0049660285
78	0x3d8f6c51	0.070030816
79	0x3caed233	0.021340465
80	0x3d502ed1	0.050825898
81	0xbd1879ef	-0.03722566
82	0x3c6e1cc7	0.014533228
83	0x3cf34ce2	0.029699747
84	0x3ceaed3a	0.028677572
85	0xbcdd0b50	-0.026982933
86	0x3d596fb5	0.053085048
87	0x3bdaf2d7	0.006681781
88	0x3c2ae131	0.010429666
89	0x3d6d9929	0.058007393
90	0x3d20b87e	0.039238445
91	0xbd00f703	-0.03148557
92	0x3c392b82	0.011301877
93	0x3cc937ba	0.024562705
94	0x3d6e785b	0.05822025
95	0x3d0a2d6a	0.033734716
96	0xbd6a81e5	-0.057252783
97	0x3b4ab785	0.003093214
98	0x3d005c03	0.03133775
99	0x3d0b35f7	0.03398701
100	0x3cd9139b	0.026498606
101	0xba6ec4d8	-0.00091083115
102	0xbc15b046	-0.009136265
103	0x3cd47d90	0.02593878
104	0xbcdeb79e	-0.027187165
105	0xba8ebca6	-0.0010889962
106	0x3d00a6f6	0.031409226
107	0x3d00e2b1	0.03146619
108	0xbc2f83a6	-0.01071254
109	0xbd03423e	-0.032045595
110	0xbd4a5171	-0.049394075
111	0x3ba22d7b	0.0049492694
112	0xbc1045e3	-0.008805725
113	0xbd196494	-0.037449434
114	0x3cf38e7a	0.029731024
115	0x3d5209f1	0.051279012
116	0x3afbcf0d	0.0019211486
117	0x3d6333b0	0.055469215
118	0x3c5d31ad	0.013500613
119	0xbcbb5575	-0.022867898
120	0xbd5ad807	-0.053428676
121	0x3c93e4cc	0.018053435
122	0xbb4cfae8	-0.0031277481
123	0xbd261dec	-0.04055588
124	0xbcde0e63	-0.02710647
125	0x3d19d91d	0.03756057
126	0x3d14efce	0.036361508
127	0x3d47feab	0.048826855
128	0x3d35c50c	0.04437737
129	0xbce00176	-0.027344447
130	0x3d61bad5	0.055109818
131	0xbd1d8a31	-0.038461868
132	0x3ce3c045	0.027801642
133	0xbc9a25ad	-0.018816793
134	0xbd171851	-0.036888424
135	0x3d29468e	0.04132705
136	0x3b6da3db	0.0036260996
137	0xbc52df8b	-0.01287068
138	0x3cd26e8b	0.025687477
139	0x3b496df2	0.0030735699
140	0x3d280a8b	0.04102568
141	0x3c40f864	0.011777971
142	0x3c1eb51f	0.009686737
143	0xbd401c40	-0.04690194
144	0x3d25a944	0.040444627
145	0xbd656413	-0.05600364
146	0x3d6c376b	0.05767004
147	0x3cbd7494	0.023126878
148	0xbd5868c2	-0.05283428
149	0xba7856d2	-0.00094733865
150	0xbd02446d	-0.031803537
151	0x3d4ef8a2	0.050530083
152	0x3cb1fabf	0.02172601
153	0xbd3d2fb2	-0.046188064
154	0xbce1144d	-0.0274755
155	0xbcabc43e	-0.020967599
156	0xbc7ef106	-0.015560394
157	0xbcdc138d	-0.026864791
158	0xbd1ab978	-0.037774533
159	0xbc32dea2	-0.010917338
160	0xbc0308a9	-0.00799767
161	0x3cb7985c	0.022411518
162	0x3d029b23	0.03188623
163	0xbd5afc0c	-0.053463027
164	0xbcffbd76	-0.031218272
165	0x3d54b0ec	0.05192654
166	0x3c7e215f	0.015510886
167	0xbc48c41b	-0.012253786
168	0x3d1bb694	0.038015917
169	0x3d6e937b	0.058246117
170	0x3c0ffca6	0.008788263
171	0xbc3c35e4	-0.011487458
172	0x3c0c9ab8	0.00858181
173	0x3cad29c9	0.021138089
174	0xbd0f3814	-0.03496559
175	0x3b816ef1	0.003949993
176	0xbcb06e04	-0.021536835
177	0x3d578bca	0.052623548
178	0xbcff2bf1	-0.031148883
179	0xbd33cf42	-0.04389883
180	0x3d24794d	0.040154744
181	0x3b8c912b	0.0042897663
182	0x3d4669a9	0.04844061
183	0x3cd9cf03	0.026587969
184	0x3c86a910	0.016438037
185	0xbb6f0128	-0.0036469195
186	0xbd13c933	-0.03608055
187	0x3b8961aa	0.0041925507
188	0x3cc6934e	0.024240162
189	0xbcf00382	-0.029298548
190	0x3cd84769	0.026401239
191	0xbbee46a3	-0.007271604
192	0xbd2871d2	-0.041124173
193	0xbc8a16e7	-0.016856624
194	0x3d0e6f98	0.034774393
195	0xbc8b7e56	-0.017028015
196	0x3d0ebbc5	0.03484704
197	0x3b511ff3	0.0031909912
198	0xbcc1681f	-0.02360922
199	0x3d1fa4a5	0.038975377
200	0xbcbfc1f9	-0.023407923
201	0xbd3aeacb	-0.045634072
202	0xbd60a9c3	-0.054849397
203	0x3b87e95d	0.004147692
204	0xbbb9cb5a	-0.0056699933
205	0xbd4e1f59	-0.050322864
206	0xbcddf660	-0.02709502
207	0x3cd4cd41	0.025976779
208	0x3d42daac	0.047571823
209	0xbbabb288	-0.0052397884
210	0xbc1222a5	-0.008919393
211	0xbbee6117	-0.0072747576
212	0xbd43bfee	-0.04779046
213	0x3d5547be	0.05207037
214	0x3a024ba6	0.0004970379
215	0xbc12fc8d	-0.008971346
216	0xbd077197	-0.033067312
217	0x3cd0a008	0.025466934
218	0x3d43d4dc	0.04781042
219	0xbb3d19ee	-0.0028854567
220	0xbcdff532	-0.027338598
221	0xbd32092c	-0.04346578
222	0xbcf243b3	-0.029573297
223	0xbd3d1241	-0.046159986
224	0x3cbf0742	0.02331889
225	0x3d474c94	0.048657015
226	0x3ccf8b65	0.025335023
227	0xbd495f3c	-0.04916309
228	0xbd041884	-0.032249942
229	0xbd4018c8	-0.046898633
230	0xbd712f87	-0.058883216
231	0x3d482063	0.04885901
232	0xbd423e34	-0.047422603
233	0x3d5aac83	0.053387176
234	0xbcb4aff4	-0.022056557
235	0xbb86232a	-0.0040935474
236	0x3cea308e	0.028587606
237	0x3b4f202d	0.0031604872
238	0x3d5ad1c8	0.05342272
239	0x3cbe8aa1	0.023259463
240	0xbcef358f	-0.029200343
241	0x3ce7caf6	0.028295022
242	0xbd4f3f5f	-0.050597545
243	0x3d71fa3b	0.05907653
244	0x3d49f536	0.049306117
245	0x3cea9346	0.028634679
246	0xbce7c9c5	-0.028294453
247	0x3d33c6db	0.043890815
248	0x3d1b2291	0.037874762
249	0x3cb407ce	0.021976378
250	0xbc86839b	-0.016420176
251	0xbbae23fa	-0.0053143473
252	0x3d19059c	0.037358865
253	0xbc12257a	-0.008920068
254	0x3d13ca54	0.036081627
255	0x3cf84253	0.030305063

_conv3._conv.bias f4 [16]
0	0x3d1ac413	0.037784647
1	0x3d0ef4cc	0.034901425
2	0xbd6bc000	-0.057556152
3	0xbd3e9066	-0.046524428
4	0xbd137707	-0.036002185
5	0xbd40c320	-0.047061086
6	0xbcb0f0d4	-0.02159921
7	0xbc14f6ba	-0.009092027
8	0x3d5ff9c3	0.05468155
9	0xbd29a1a1	-0.041413907
10	0x3d5705cd	0.052495766
11	0x3d48bb54	0.049006775
12	0x3d3bdf02	0.045866974
13	0x3d05b6fe	0.032645218
14	0xbcd21a9a	-0.02564745
15	0xbcfdfd6d	-0.031004632

_conv3._bn.weight f4 [16]
0	0x3ecf0107	0.4043047
1	0x3e93b4f8	0.28849006
2	0x3ebc7ab5	0.36812368
3	0x3f1c801c	0.6113298
4	0x3f75b88f	0.9598474
5	0x3dbdf6dd	0.09275601
6	0x3dec52b5	0.115392126
7	0x3f6df0cf	0.9294557
8	0x3ef4c45b	0.47806057
9	0x3f87aaaa	1.0598958
10	0x3da72988	0.08162218
11	0x3e87fa98	0.26558375
12	0x3d664fd1	0.056228463
13	0x3e674a2c	0.22586888
14	0x3f27e19b	0.6557862
15	0x3f36d41c	0.71417403

_conv3._bn.bias f4 [16]
0	0x3a97a40b	0.0011569274
1	0x3b22e742	0.0024857079
2	0x3ba3e593	0.0050017326
3	0x3d50efa7	0.0510098
4	0x3e09dbec	0.134628
5	0x3c9acf29	0.01889761
6	0x3ca7e181	0.02049327
7	0x3d430ef3	0.04762168
8	0x3d8f2e33	0.06991234
9	0x3de801e3	0.11328485
10	0x3bc3d35c	0.0059761237
11	0x3c29bab5	0.010359456
12	0x3b917729	0.004439254
13	0x3d1e269a	0.038611032
14	0x3d8e43b9	0.06946511
15	0x3d4388a4	0.047737733

_conv3._bn.running_mean f4 [16]
0	0x3e4b8f5e	0.19878909
1	0x3e81abb9	0.25326326
2	0x3e997244	0.2996999
3	0xbe96c675	-0.29448286
4	0xbe080eb4	-0.13286859
5	0x3da5ba81	0.080922134
6	0xbea67f9c	-0.32519233
7	0xbe622180	-0.22083092
8	0xbc6cdf26	-0.0144575
9	0xbe2fe431	-0.17176892
10	0x3d8e9982	0.06962873
11	0x3e20d068	0.157045
12	0xbe267aa6	-0.16257724
13	0xbe737ed6	-0.23778853
14	0xbe086f81	-0.13323785
15	0xbe867fc1	-0.26269343

_conv3._bn.running_var f4 [16]
0	0x3ca6e737	0.020373924
1	0x3cf1b632	0.029505823
2	0x3d9c6f2e	0.07638393
3	0x3cd76237	0.02629195
4	0x3d31d509	0.043416057
5	0x3c8832b4	0.01662574
6	0x3d16642d	0.03671663
7	0x3dbc0bc8	0.091819346
8	0x3cd51333	0.026010131
9	0x3d975676	0.07389538
10	0x3c2b1c3c	0.010443743
11	0x3d8991ff	0.067173
12	0x3ddd4f71	0.10806168
13	0x3d7e966e	0.06215518
14	0x3d10062d	0.03516214
15	0x3d18ffce	0.03735333

_conv4.weight f4 [2, 16, 5, 5]
0	0xbbbafb50	-0.0057062283
1	0x3d0414d6	0.032246433
2	0xbd6b2a0a	-0.05741314
3	0x3cf0cc5c	0.029394321
4	0x3c42cef1	0.011890159
5	0xbb024429	-0.0019877052
6	0x3c793d5a	0.015212381
7	0x3c92b428	0.01790817
8	0x3caa89a9	0.020817595
9	0xbcf94a64	-0.03043098
10	0xbd84b387	-0.064795546
11	0xbcc7a4f9	-0.024370657
12	0x3d03d522	0.03218568
13	0xbce2c54b	-0.027681967
14	0x3c096939	0.008386903
15	0xbd485af2	-0.048914857
16	0x3c8bc5a9	0.017062025
17	0xbc90334e	-0.017602589
18	0xbd54fbe2	-0.051998027
19	0x3b87ea9f	0.004147842
20	0xbd368656	-0.044561706
21	0xbd3cc081	-0.046082024
22	0x3c913d78	0.017729506
23	0xbcc76d94	-0.024344243
24	0xbc43ef21	-0.011958868
25	0xbd1cb713	-0.03826053
26	0xbd2330e6	-0.039841555
27	0xbd463957	-0.048394527
28	0xbd0e23fc	-0.034702286
29	0xbd282c13	-0.041057657
30	0xbd18b933	-0.037285995
31	0xbba48f87	-0.0050219926
32	0x3c928eb1	0.017890306
33	0xbd685602	-0.05672265
34	0xbd2a83aa	-0.04162947
35	0xbd439dd5	-0.047757942
36	0xbccdb6eb	-0.025111636
37	0xbc8723e7	-0.016496612
38	0xbb86d398	-0.0041145794
39	0xbd064dae	-0.032788925
40	0x3d037b8e	0.032100253
41	0x3d1f5eca	0.038908757
42	0xbc04f502	-0.008115055
43	0x3c642662	0.013925167
44	0x3ca8e046	0.020614754
45	0x3b3e9e99	0.002908623
46	0x3be375e7	0.0069415453
47	0x3bce9f65	0.0063056224
48	0xbc4b49d1	-0.012407736
49	0x3c818f3f	0.015815375
50	0x3ca64cbf	0.020300267
51	0xbc2c5def	-0.010520442
52	0x3d0f30e7	0.034958746
53	0x3ce3f82c	0.027828299
54	0xbd2af799	-0.041740034
55	0x3ca5a28d	0.020219112
56	0x3b818d3f	0.0039536054
57	0x3ceef66b	0.029170236
58	0xbd7a5f24	-0.06112589
59	0x3c190dab	0.009341638
60	0x3beb21ba	0.0071756514
61	0xbb66011c	-0.0035095876
62	0xbd4ad7a2	-0.04952205
63	0xbcdf51f3	-0.027260756
64	0x3bdbebc3	0.0067114546
65	0xbd6ceaf3	-0.057841253
66	0xbb260fd6	-0.0025339029
67	0xbcf900ac	-0.030395828
68	0xbce2849e	-0.027651127
69	0x3d0e38b3	0.03472204
70	0x3cf669bc	0.030079715
71	0x3c940295	0.018067637
72	0xbd6ec37a	-0.05829189
73	0xbb97262a	-0.004612704
74	0xb969fd69	-0.00022315014
75	0x3c9c17c1	0.019054295
76	0xbd8b5990	-0.06804192
77	0xbd1a3bda	-0.037654735
78	0xb8971423	-7.203992e-05
79	0xbd271593	-0.04079206
80	0xbbac84b0	-0.005264841
81	0xbd23bcf9	-0.03997514
82	0xbd07440a	-0.03302387
83	0xbd82a917	-0.063799076
84	0xbd09a38c	-0.033603236
85	0xbd452573	-0.048131417
86	0xbd8b2922	-0.06794955
87	0xbd9d056e	-0.07667051
88	0x3c7c9c4c	0.015418123
89	0xba140581	-0.0005646572
90	0xbd380d07	-0.0449343
91	0xbda7b042	-0.081879154
92	0xbd145d11	-0.036221568
93	0xba9a1b45	-0.0011757395
94	0xbd0fac4c	-0.035076424
95	0xbd9ac78d	-0.075575925
96	0xbdb2f63e	-0.08738373
97	0xbb0241d2	-0.0019875658
98	0xbd663ff0	-0.05621332
99	0xbd056092	-0.0325628
100	0xbd8d7463	-0.06906965
101	0xbd94b6e2	-0.07261445
102	0xbdb5d284	-0.08878043
103	0xbdd5a945	-0.10432676
104	0xbd35af83	-0.044356834
105	0xbbf1d8ee	-0.0073805964
106	0xbdb931c7	-0.090426974
107	0xbd2f0c2f	-0.04273623
108	0xbda5b57c	-0.08091256
109	0xbd874eeb	-0.06606849
110	0xbca7ef69	-0.020499902
111	0xbd704dba	-0.058667876
112	0xbd901150	-0.07034552
113	0xbdbac1dc	-0.09119007
114	0xbc5f9bf0	-0.013648018
115	0xbd72bdcf	-0.059263047
116	0xbd05ce61	-0.03266752
117	0xbdda036d	-0.10645185
118	0xbd3da395	-0.046298582
119	0xbcf8621b	-0.030320218
120	0xbd4421cf	-0.047883805
121	0xbde7a9ca	-0.113116816
122	0xbd39faa9	-0.045405064
123	0xbd76ef0d	-0.06028657
124	0xbd9e3db5	-0.077266134
125	0xbd22ceb4	-0.03974791
126	0x3c2a9da0	0.010413557
127	0xbc2df505	-0.010617499
128	0x3b0848da	0.0020795376
129	0xbce956c5	-0.028483758
130	0x3c451a2f	0.012030168
131	0xbc92bb16	-0.017911475
132	0x3d454789	0.048163924
133	0x3d5f9280	0.054583073
134	0x3d1dc3cb	0.0385168
135	0x3b4b5b0a	0.0031029605
136	0x3d333110	0.04374796
137	0xbce1d857	-0.02756898
138	0x3cb87c19	0.022520112
139	0x3a5a20b0	0.0008320911
140	0x3cf9855b	0.030459097
141	0x3d224aa0	0.03962195
142	0x3aee23a3	0.001816858
143	0x3c74d92f	0.014944359
144	0xbd279f6a	-0.040923513
145	0xbbd7405e	-0.0065689525
146	0xbd0dc8d2	-0.034615345
147	0xbcf908e7	-0.030399753
148	0xbbcb941c	-0.0062127244
149	0x3d227118	0.039658636
150	0x3d2b879c	0.041877374
151	0xbcd097b3	-0.02546296
152	0x3c083349	0.008313009
153	0xbca09877	-0.01960395
154	0xbd5dcaa2	-0.054148324
155	0x3c206f87	0.009792215
156	0xbd006ce5	-0.03135385
157	0xbd212c7f	-0.039349075
158	0xbd5465f6	-0.05185505
159	0xbcda8fa4	-0.026679821
160	0x3c94986f	0.018139092
161	0x3b8140d9	0.003944498
162	0xbd1e060f	-0.038579997
163	0x3d19e558	0.037572235
164	0xbd1abced	-0.03777783
165	0xbc6b24c7	-0.01435203
166	0x3c61afd2	0.013774829
167	0xbd4ee5d2	-0.050512142
168	0xbd47f2c7	-0.048815515
169	0xbc05c8f9	-0.008165591
170	0xbad4375e	-0.0016190817
171	0xbb0eeb4c	-0.0021807728
172	0xbcc6565c	-0.024211101
173	0x3ca14567	0.019686414
174	0xbcf19422	-0.02948958
175	0xbd1a45d6	-0.037664257
176	0xbc86c0e9	-0.016449409
177	0xbce59029	-0.028022842
178	0xbd2bb601	-0.04192162
179	0xbb8174be	-0.0039506843
180	0xbd66514d	-0.05622988
181	0xbb0e65e7	-0.002172822
182	0xbd1c5350	-0.03816539
183	0x3c04c343	0.008103195
184	0xbd2dc2e6	-0.042422198
185	0xbd9173d9	-0.07102174
186	0xbd6d343c	-0.057911143
187	0xbc317e56	-0.0108333435
188	0xbd229359	-0.039691303
189	0xbd8e45c0	-0.069468975
190	0xbd7df4e3	-0.06200112
191	0xbd69cc89	-0.057079826
192	0xbd04c32c	-0.032412693
193	0xbd309ba4	-0.04311718
194	0xbca6567f	-0.020304916
195	0xbdc8d1ba	-0.09805627
196	0xbdcbf645	-0.099590816
197	0xbdc9ea14	-0.098591
198	0xbd2f9d8e	-0.042874865
199	0xbdbe8806	-0.09303288
200	0x3da50a17	0.08058565
201	0x3cce82cf	0.025208859
202	0x3d97dd69	0.074152775
203	0x3d2dc9e0	0.04242885
204	0x39704c35	0.00022916573
205	0x3d90edb8	0.07076591
206	0xbb9d35a1	-0.004797653
207	0x3d8c8a7d	0.06862352
208	0x3d9c63ac	0.076361984
209	0x3dabd8a7	0.083909325
210	0x3db152bd	0.08658359
211	0x3d26d35f	0.040728923
212	0x3d5a6669	0.053320322
213	0x3d90eb66	0.07076149
214	0x3db3ca91	0.08778871
215	0x3dbb60c5	0.09149317
216	0x3d887216	0.06662385
217	0x3d3b715a	0.045762397
218	0x3cbc108c	0.022957109
219	0x3da77df8	0.081783235
220	0x3d8d11bf	0.068881504
221	0x3dbd713b	0.092501126
222	0x3d528611	0.051397387
223	0x3d294e2d	0.04133432
224	0x3c96d81d	0.018413598
225	0xbcaba2e6	-0.0209517
226	0xbd49cd67	-0.049268153
227	0xbcfe4f34	-0.031043626
228	0xbc603767	-0.013685084
229	0xbccda1bd	-0.025101537
230	0xbdc17ce3	-0.094476484
231	0xbca61951	-0.020275744
232	0xbda7893d	-0.08180473
233	0xbd085263	-0.033281695
234	0xbd85effb	-0.06539913
235	0xbdaef69e	-0.08543132
236	0xbda64233	-0.08118095
237	0xbd99fe7f	-0.075192444
238	0xbdca6191	-0.098818906
239	0xbd2e5970	-0.042565763
240	0xbdfc6a46	-0.123249575
241	0xbda56a14	-0.080768734
242	0xbce93fa1	-0.028472723
243	0xbdcc4b56	-0.09975307
244	0xbd9b0dec	-0.07571015
245	0xbdadea55	-0.08491961
246	0xbe02f42c	-0.12788457
247	0xbdff53bc	-0.12467143
248	0xbd275af0	-0.04085821
249	0xbd506138	-0.050873965
250	0xbccde636	-0.025134187
251	0xbc4a135d	-0.012333718
252	0xbad9dc85	-0.0016621506
253	0x3d2fa53d	0.042882193
254	0x3d0c3d5d	0.034238208
255	0x3d34d3bf	0.04414725

_conv4.bias f4 [2]
0	0xba18ea5c	-0.0005833262
1	0xbc05246c	-0.008126359
